…
2023-04-14 01:07:23.126770: I tensorflow/core/platform/cpu_feature_guard.cc:142] Your CPU supports instructions that this TensorFlow binary was not compiled to use: AVX2
Model: "model"
__________________________________________________________________________________________________
Layer (type)                    Output Shape         Param #     Connected to
==================================================================================================
post (InputLayer)               [(None, 10, 1)]      0
__________________________________________________________________________________________________
conv1d (Conv1D)                 (None, 10, 10)       40          post[0][0]
__________________________________________________________________________________________________
conv1d_1 (Conv1D)               (None, 10, 10)       510         conv1d[0][0]
__________________________________________________________________________________________________
conv1d_2 (Conv1D)               (None, 10, 10)       710         conv1d_1[0][0]
__________________________________________________________________________________________________
conv1d_5 (Conv1D)               (None, 10, 10)       510         conv1d_1[0][0]
__________________________________________________________________________________________________
conv1d_3 (Conv1D)               (None, 10, 10)       910         conv1d_2[0][0]
__________________________________________________________________________________________________
add_1 (Add)                     (None, 10, 10)       0           conv1d_5[0][0]
                                                                 conv1d_1[0][0]
__________________________________________________________________________________________________
add (Add)                       (None, 10, 10)       0           conv1d_3[0][0]
                                                                 conv1d[0][0]
__________________________________________________________________________________________________
conv1d_6 (Conv1D)               (None, 10, 10)       310         add_1[0][0]
__________________________________________________________________________________________________
conv1d_4 (Conv1D)               (None, 10, 10)       710         add[0][0]
__________________________________________________________________________________________________
add_2 (Add)                     (None, 10, 10)       0           conv1d_6[0][0]
                                                                 conv1d_4[0][0]
__________________________________________________________________________________________________
conv1d_7 (Conv1D)               (None, 10, 1)        31          add_2[0][0]
__________________________________________________________________________________________________
dense (Dense)                   (None, 10, 1)        2           conv1d_7[0][0]
==================================================================================================
Total params: 3,733
Trainable params: 3,733
Non-trainable params: 0
__________________________________________________________________________________________________
medidas de entrenamiento
Train on 9750 samples, validate on 514 samples
Epoch 1/5
9750/9750 [==============================] - 9s 915us/sample - loss: 0.2398 - accuracy: 0.4864 - val_loss: 0.0277 - val_accuracy: 0.5144
…
